autopilot/models/maggie_tflite/angle_model.tflite (tflite, 99324 bytes, 8 tensors)

dense2/bias f4 [17]
000000 3e 97 8c 3e 68 bb df 3e 9e 55 f4 be 23 8d a1 3c
       0.2745914 0.43697667 -0.4772157 0.01972062
000010 de 34 45 3e a9 23 8c 3e 28 d8 9e be a7 3b a0 bd
       0.19258448 0.27370957 -0.3102429 -0.07823878
000020 f9 18 71 be 94 98 78 bd a9 75 02 3e cf 90 c4 be
       -0.23544683 -0.060692385 0.12740196 -0.3839173
000030 0b a9 62 be 61 36 46 bd 5a 8e 0a 3f 40 0b 87 3f
       -0.22134797 -0.048391704 0.5412346 1.0550308
000040 f6 e9 94 3e
       0.29084748

dense1/bias f4 [20]
000000 e3 c2 84 be 0d 86 8f 3d 1f 14 ba 3e ea a0 81 be
       -0.25929937 0.0700799 0.36343476 -0.2531808
000010 7c 73 00 be 2e 10 38 3d 61 b6 54 be fb 6d 1a be
       -0.12544054 0.044937305 -0.20772697 -0.15081017
000020 d4 99 99 3e f6 66 46 3c 7d 1f 24 be 6a b8 9d bd
       0.30000174 0.012109509 -0.16027637 -0.0770119
000030 9c 45 49 3c ba 08 2c be 50 0f 14 be 08 7f 79 bd
       0.012284663 -0.16800204 -0.14458966 -0.060912162
000040 3e 24 3f bd d5 c0 e9 bd 5a b6 58 be 83 75 ae 3e
       -0.046665423 -0.11413733 -0.21163312 0.3407403

conv2/bias f4 [10]
000000 b0 a3 45 be 74 78 bd be 69 73 bf be 9a 19 f8 be
       -0.19300723 -0.3700596 -0.37392738 -0.48457032
000010 32 5f 8a bd fd 89 25 be 68 27 3c be ca ef 9d be
       -0.06756438 -0.1616592 -0.18374407 -0.30847007
000020 7d 36 ec be e4 78 5c b8
       -0.4613532 -5.2564676e-05

conv1/bias f4 [32]
000000 79 e1 49 3e ad 89 3e bd 86 b7 b3 3d 8c f3 7e 3e
       0.19714917 -0.046518017 0.08775239 0.24897593
000010 78 2b 73 3d 86 55 8b bd c9 b9 4b bd 5b 20 c4 bc
       0.059367627 -0.06803422 -0.049737725 -0.02394121
000020 a5 51 c9 bd aa b2 25 3e b2 99 ea bd 77 46 68 3e
       -0.098300256 0.16181436 -0.11455096 0.2268313
000030 ad 38 d6 3d 33 e1 c1 bc 39 66 4d bc 70 78 ae 3e
       0.10460029 -0.023666954 -0.012536579 0.34076262
000040 03 4b fe bd b4 24 4c 3c 4f 34 12 3e 1b d3 47 bd
       -0.12416651 0.012459923 0.14277767 -0.04878531
000050 55 13 27 bd c3 a1 03 bd b4 1c 32 3c 14 6d 7c bd
       -0.04078992 -0.03213669 0.010871101 -0.061627463
000060 c2 6d 9c bd 58 b5 66 bd 51 d1 93 3b b0 35 2f 3e
       -0.07638122 -0.056325287 0.0045110364 0.17110324
000070 70 bc 39 bd e4 01 fa bc 71 bf 92 bd 65 04 e2 bc
       -0.045345724 -0.03051848 -0.07165421 -0.027589986

std.constant1 f4 [20, 1000]
000000 f4 69 4f bf fd 7e 37 3d 04 63 11 3d 88 9c d0 3b
       -0.81021047 0.04479884 0.03549482 0.006366316
000010 c8 00 62 bd d4 b9 89 be 84 f9 75 bd 1e 62 aa be
       -0.055176526 -0.26899588 -0.06005241 -0.33277982
000020 3d e9 af 3d e5 80 80 bd 72 aa 88 be 74 fb e9 3d
       0.085894085 -0.06274585 -0.2669254 0.11424914
000030 6a d1 88 be 75 20 fa be be 80 0a 3e fd f0 34 3e
       -0.2672227 -0.48852888 0.13525674 0.17670055
000040 95 83 8e bd 83 a0 f7 be ac b7 87 be 14 19 b3 be
       -0.06958691 -0.48364648 -0.26507318 -0.3498007
000050 3f 7c 9c be 2c cc d8 3d 35 00 20 3f 8d 75 83 3e
       -0.30563542 0.10585818 0.62500316 0.25675622
000060 d3 39 21 3e 66 bc fe bc 49 83 73 bd 30 a7 23 be
       0.15744714 -0.031095695 -0.059451375 -0.15981746
000070 17 7f 15 bf 1d 9b 80 3e 99 ea ff bd d0 0f 55 be
       -0.5839705 0.25118342 -0.12495918 -0.20806813
000080 fd 6d 74 3c 60 e2 ba ba 47 3f 85 3e fe 03 f0 bd
       0.014918801 -0.0014258139 0.2602484 -0.117195114
000090 87 41 ed 3c f3 ee ba be 81 84 40 be cf 88 2d bf
       0.02896191 -0.3651043 -0.18800546 -0.6778688
0000a0 c3 87 18 3e b4 fe b7 be 55 c5 93 bc b8 1c f7 3d
       0.14895539 -0.3593651 -0.018038431 0.120660245
0000b0 3b 74 16 3e 88 6d 7b bc ed 92 8b bd 6d 54 40 3e
       0.14692776 -0.0153459385 -0.06815133 0.18782206
0000c0 e8 e7 57 3e dd 6e 08 3f ef 1f ad be ee 8b c3 3e
       0.21084559 0.53294164 -0.33813426 0.38192695
0000d0 f6 91 ed 3e a8 06 d7 3e 4c db e4 3d 4c 3f ec be
       0.46400422 0.41997266 0.1117464 -0.46142042
0000e0 fa 13 89 3d ce c9 4e bd 45 2e 17 bf be b1 83 3d
       0.06693263 -0.050485425 -0.59054977 0.06430386
0000f0 19 d6 b6 be 75 e2 cd bd 23 51 d9 3d 8a 7a bc 3e
       -0.3571022 -0.10052959 0.10611179 0.3681224
000100 f9 b3 38 bd 9b a3 88 be 8f aa b2 bd 86 d6 7f 3e
       -0.04509351 -0.2668732 -0.08723938 0.24984178
000110 6f 6d e8 3c 31 85 0e be c8 07 46 3e bc 80 4a bd
       0.028372495 -0.13917996 0.19338906 -0.049439177
000120 07 96 f5 bd 85 fb 88 3d 27 79 c7 bd fe 07 b0 be
       -0.11991506 0.066885985 -0.09739905 -0.34381098
000130 ef b7 61 bd 9f fd 00 bf 41 67 8f be 8d 6a c9 bd
       -0.055107053 -0.50386995 -0.28008464 -0.09834776
000140 cf 83 00 be 78 e0 8d 3c a2 8a 34 be da 2d e3 be
       -0.12550281 0.01731895 -0.17631009 -0.4437092
000150 79 dc 43 be 45 08 de be fb b4 1a bb 20 97 be be
       -0.19127072 -0.43365684 -0.0023606408 -0.37224674
000160 5a 89 17 bf ac 87 a6 be 62 72 91 bd 52 1e b0 3d
       -0.59193957 -0.32525384 -0.07101895 0.08599533
000170 bd fc 39 3d 0c b7 8a 3c a4 03 24 3e e8 49 ca bd
       0.045407046 0.016932987 0.16017014 -0.09877378
000180 24 7c c0 bc 52 75 05 3d 0a 43 ce bd a2 f3 04 3e
       -0.023496695 0.03258259 -0.100713804 0.12983564
000190 a3 6e 5a be f1 ca 0c 3f 1a e4 a8 3c be 4b 8e 3e
       -0.21331267 0.54997164 0.02061658 0.27792162
0001a0 07 c0 29 3e 04 af a4 bc a6 d0 62 3d 0e 22 74 3e
       0.16577159 -0.020102985 0.055374764 0.23841116
0001b0 8e 65 ca 3d b1 a0 0e bf fa fe a4 3e 0c c0 c4 bd
       0.09882651 -0.55713946 0.32225782 -0.096069425
0001c0 c1 02 62 3d cf 58 24 bf e7 fd 44 bf 2d 30 c0 bd
       0.055178408 -0.6419801 -0.76949924 -0.09384189
0001d0 21 ea 16 bd 4f 8c a7 be 62 f0 ad 3e 3a 39 23 3d
       -0.036844376 -0.32724234 0.3397246 0.039849497
0001e0 15 53 57 3e 05 78 be 3e ab 7e 02 3f c3 ec 43 3e
       0.21027787 0.37200943 0.5097453 0.19133286
0001f0 a8 ca 90 3e 2d 8f 26 be c4 3d 51 bd 3a ae 2f be
       0.28279614 -0.16265555 -0.051084295 -0.17156306
000200 46 06 b4 bd b5 65 3a be 1a b1 4f 3d 30 af b2 3d
       -0.08790259 -0.1820286 0.050706007 0.087248206
000210 fa b6 00 be 19 10 74 3e c9 72 9b be 91 33 1e 3e
       -0.125698 0.23834266 -0.30361012 0.15449359
000220 48 04 17 bd f3 de e3 3d 25 0e 5b be a1 05 db 3d
       -0.036869317 0.111265086 -0.21392114 0.10694433
000230 f1 2c 8c 3e 70 0e e0 bd 8e 76 90 be 7b 0d c4 3e
       0.27378038 -0.10940254 -0.2821545 0.38291535
000240 49 b7 8a 3e 56 80 50 3e 7e 71 a2 3d e2 34 98 3e
       0.2709296 0.20361456 0.07931803 0.29727846
000250 3a 4c d0 bd 67 5a a5 be b8 8f a4 bd 0f 38 64 be
       -0.10170789 -0.32295534 -0.08035225 -0.2228701
000260 ec c0 0a be f2 a7 84 3e 42 5c 25 bf b2 e2 00 3e
       -0.13550156 0.25909382 -0.645939 0.12586477
000270 71 9e 09 3d c3 65 63 bd 00 d6 a8 be 65 17 9d 3e
       0.033598367 -0.05551697 -0.3297577 0.3068191
000280 19 0d b2 3b 08 53 84 bc 01 7e 6d 3e 2f ec c6 3c
       0.0054336903 -0.016152874 0.23192598 0.024282543
000290 13 f4 00 bf 54 ac 26 3f e7 a5 93 3c e3 ea 98 3e
       -0.5037243 0.651067 0.018023444 0.29866704
0002a0 a0 a8 0a be 32 9d a1 3e e2 1f ae 3d 18 f6 7e be
       -0.13540888 0.31565243 0.08502175 -0.24898565
0002b0 36 61 5b 3e 14 8f 58 be b2 bc bb bd 5e 38 e7 3d
       0.21423802 -0.2114833 -0.0916685 0.11290048
0002c0 61 c9 4b 3d 05 d2 75 3e b3 2c 53 be 77 3b 3b 3e
       0.049752597 0.24005897 -0.2062252 0.18284403
0002d0 2b a3 29 3e 21 65 94 be 1d ed 06 be 2e 8b e8 bd
       0.1656615 -0.28983405 -0.13176389 -0.113546714
0002e0 48 1f df bd 60 0f f9 bd 36 73 3d bb ef 5c 32 be
       -0.10894638 -0.12161136 -0.0028907782 -0.17418264
0002f0 70 85 14 3d 57 2f 56 3e a7 51 e3 3d 19 d6 aa be
       0.03626007 0.20916496 0.11099558 -0.3336647
000300 4d cc 81 3e 62 c0 26 be 16 0d 1a be 85 1c 04 be
       0.25351182 -0.16284326 -0.15044054 -0.12901504
000310 e0 53 79 bc 01 82 2c be c4 6e 43 be b4 32 b8 3e
       -0.015217751 -0.16846468 -0.19085222 0.35976183
000320 5e ce ca bd 66 6f fc 3e 6a bf 8f bb 32 c0 aa 3d
       -0.09902643 0.4930374 -0.004386832 0.083374396
000330 1e 9d df 3e f6 e2 93 be 9a e2 79 3a 8c 1b 7f 3e
       0.43674558 -0.28884095 0.00095323625 0.24912852
000340 e5 eb d2 be eb 9e 99 be 15 51 6c be f6 0e 9b 3d
       -0.41195598 -0.30004057 -0.23077805 0.07571213
000350 06 ce 45 bd 2a a3 a2 bd 3c 08 cc be 66 d6 b4 3e
       -0.048292182 -0.07941277 -0.39850032 0.35319823
000360 fb 7b 88 bd a8 50 c6 3d 6d ed 03 bf fa 18 e3 3e
       -0.066642724 0.09683353 -0.5153416 0.44354993
000370 d6 d4 1c 3e 93 c7 ef be ee de 55 be 58 c4 49 3c
       0.15315565 -0.4683195 -0.20885822 0.012314878
000380 d5 b8 92 3d 5c 11 a0 be 69 70 8e bd 2c 3b 74 be
       0.0716416 -0.31263244 -0.06955034 -0.23850697
000390 09 77 88 3e 16 9f bd bc 27 d3 27 be f1 8a b2 be
       0.26653317 -0.023147147 -0.16389142 -0.3487163
0003a0 32 3d 22 3d 91 87 be 3e c6 cd ac 3e b6 60 95 bd
       0.03960914 0.37212804 0.33750743 -0.07293837
0003b0 1d 77 1d bd a6 7f 21 3e 30 88 4f 3e a4 5a e3 3e
       -0.038443673 0.1577135 0.20266795 0.4440509
0003c0 49 b8 c2 be 4d df ef 3e fa bf 20 3e 14 73 bc bd
       -0.38031223 0.46850052 0.15698233 -0.09201637
0003d0 6f a1 07 be 30 5f ff 3a 9f 91 87 3d 0b c8 05 be
       -0.13245176 0.0019483324 0.06619572 -0.13064592
0003e0 0e f0 bd be ba 14 bb 3d 1d c0 b0 be 53 48 05 3c
       -0.3709721 0.09134813 -0.3452157 0.008134919
0003f0 9e 22 14 3f 8d 24 24 3e 8f 8c 42 bd 1e a5 c1 3e
       0.5786532 0.16029568 -0.04749733 0.37821287

std.constant2 f4 [17, 20]
000000 24 58 42 bf 87 55 6d bf 92 6d 5d 3d af 17 c5 bd
       -0.7591574 -0.9270863 0.054059573 -0.09623658
000010 11 b6 cc bd 10 35 9a 3e ed ad f2 3e 5f ab af bd
       -0.09995664 0.30118608 0.4739832 -0.08577608
000020 9e a9 54 bf 16 c9 09 bf c9 14 ab be 3e 3b 77 be
       -0.83071315 -0.5382246 -0.33414295 -0.24143693
000030 bb 78 30 3e e3 39 06 be cf 36 6f bf ce 9b 86 be
       0.17233555 -0.1310802 -0.93443006 -0.26290745
000040 a5 b4 12 be 42 62 b3 3e 92 33 1c 3f 7c c5 5b bf
       -0.14326723 0.35035902 0.6101619 -0.8584821
000050 b5 16 24 bf a8 5d 2f bf d2 48 d0 be cc 7a c1 3e
       -0.6409715 -0.68502283 -0.40680557 0.37789
000060 47 36 40 be a6 6e dd 3e e8 b9 b8 3e 3d 98 3c be
       -0.18770705 0.4324848 0.36079335 -0.1841745
000070 7d 1d 8d bf 4e 3d 0d bf 7a c0 7c be b8 90 7a 3e
       -1.1024624 -0.5517167 -0.24682799 0.24469268
000080 41 52 39 bd b4 50 2b bf 96 c7 28 bd c4 2b 90 be
       -0.04524446 -0.6692002 -0.041205965 -0.2815839
000090 be 75 23 be 9c b8 9d 3d 21 35 20 3e 51 b9 b3 be
       -0.15962884 0.07701227 0.15645267 -0.35102323
0000a0 6a 14 21 bf 09 e7 93 bf b9 35 4e be a1 c0 9e 3e
       -0.62921774 -1.1554881 -0.20137681 0.3100634
0000b0 e3 c5 f7 3d 73 38 ea ba 3e 03 98 3e 0e c2 4a be
       0.12098291 -0.0017869606 0.29689974 -0.19800588
0000c0 c0 38 9b be 79 0b 5d bf 58 a7 10 bf ea 54 c6 3e
       -0.30316734 -0.8634563 -0.56505346 0.3873666
0000d0 66 26 36 3e eb 50 90 be 25 d5 af 3e ae 59 d3 be
       0.17788085 -0.28186736 0.34342304 -0.41279358
0000e0 c0 95 d4 be 66 f0 d8 3e ca 27 70 bf 1c 20 5b bf
       -0.415205 0.4237091 -0.93810713 -0.8559587
0000f0 34 f1 2d 3d 78 9d 5f bf 24 3d bc be 6c 01 16 bc
       0.042466357 -0.87349653 -0.36765397 -0.009155612
000100 62 1f a3 be 58 b2 9d 3e 7d 09 59 be 72 9f c7 3e
       -0.3185988 0.30800128 -0.21195026 0.38988835
000110 04 7a 1e bf d0 f3 b2 be c5 7c c2 be 43 f9 51 3e
       -0.6190493 -0.3495164 -0.37985817 0.20505242
000120 78 a1 1d 3f 8f dd cc bd f5 5e 1e bf af 38 5d be
       0.61574507 -0.100031964 -0.6186364 -0.21603654
000130 83 bc eb be 80 c0 ed be f0 d5 01 3e 98 80 06 bf
       -0.4604226 -0.46435928 0.12679267 -0.5253997
000140 c0 a7 37 3e 79 35 a0 3c 03 5f 51 bf 6f 31 8c 3e
       0.17935085 0.019556748 -0.817856 0.27381465
000150 72 6a 89 be 29 42 d7 be 0a 60 b2 3e 69 12 61 3e
       -0.26839024 -0.42042664 0.34838897 0.21979679
000160 63 52 12 bf 78 a8 53 bf 9b e3 21 3f 09 58 1e 3e
       -0.5715696 -0.8267894 0.63237923 0.1546327
000170 8f 2e 9c 3e ff c2 84 3e 1d 51 34 bf 14 9a 00 be
       0.3050427 0.2593002 -0.7043627 -0.12558776
000180 e5 9c 1c be d1 59 11 bf 6d e2 13 be 4f e7 67 be
       -0.15294226 -0.56777674 -0.14441843 -0.22646831
000190 ad e6 17 be 25 27 8e be 87 ac a4 bf c1 dd c0 be
       -0.1483409 -0.2776424 -1.2865151 -0.37669185
0001a0 35 af e8 3e 32 e6 59 be 1e 11 07 3e 4c 1e 7c be
       0.45446172 -0.21279219 0.13190123 -0.24620932
0001b0 05 69 ba bf 06 6d 79 bf a0 37 16 3e 9e 96 ad be
       -1.45633 -0.9743198 0.14669657 -0.33903974
0001c0 a0 be 37 3e 53 6d a9 3e db d3 04 3b d6 f6 9e be
       0.17943811 0.3309122 0.0020267877 -0.31047696
0001d0 f9 c8 9e 3e bc 00 17 bf 64 78 00 bf b5 c7 98 3e
       0.31012705 -0.58985496 -0.501837 0.29839864
0001e0 02 bc c3 3e 82 62 1b 3f 36 d9 49 bf 2c 60 62 bf
       0.38229376 0.60697186 -0.7884706 -0.88427997
0001f0 51 99 90 3d e7 7f ff 3d e1 c3 f3 3e 4b a9 37 be
       0.07060493 0.12475567 0.4761038 -0.17935674
000200 71 72 0f bf 69 a4 57 be b9 ce 18 3e ca bc ac be
       -0.56034 -0.21058811 0.14922608 -0.33737785
000210 08 b9 45 be 42 f0 12 bf 0e d2 31 bf 12 71 5c be
       -0.19308865 -0.57397854 -0.69461143 -0.21527508
000220 05 c9 04 3e 05 93 b4 bd 42 23 59 be cd 70 0f be
       0.12967308 -0.08817104 -0.21204856 -0.14007874
000230 f7 55 95 be 22 3f e3 3e 76 2d 10 bd 57 7b 79 be
       -0.29167148 0.44384104 -0.035199605 -0.24363457
000240 5d 44 63 3e 62 1e 26 3e 14 1d 0f bf 71 04 22 3d
       0.22194047 0.16222528 -0.55903745 0.039555017
000250 f6 b2 17 bf 0c 5e d1 3e cf 0d 11 bf 4b 11 86 3e
       -0.5925745 0.40892065 -0.56661695 0.26185068
000260 8f c8 54 bf 97 b5 9e be f2 13 4c bf 24 8c 89 3e
       -0.8311853 -0.30997917 -0.79717934 0.2686473
000270 5f 86 3b 3e 5e bf 1f bf b8 4d 5a 3d 63 05 00 bf
       0.18312977 -0.6240138 0.053296775 -0.5000822
000280 53 30 04 3f 68 c9 6a 3e de da 3c bf d8 09 07 3e
       0.51636237 0.22928393 -0.73771465 0.13187349
000290 9e 8b e0 3e 22 8a 17 bf 27 06 08 bf 92 b8 e2 be
       0.4385652 -0.5919515 -0.5313439 -0.4428144
0002a0 e5 7f 1d bf a8 3a b7 3e b2 1c 28 bf 17 fa 20 bf
       -0.61523277 0.3578694 -0.65668786 -0.62881607
0002b0 69 bb 7c 3d 66 d3 11 bf 16 5a 41 bf 99 96 08 be
       0.061702166 -0.56963193 -0.75528085 -0.13338698
0002c0 d3 38 bb bd e8 3c 7e be 91 a8 bf be 43 88 72 bf
       -0.09141698 -0.24827921 -0.37433293 -0.9473917
0002d0 7e 2f 82 3e 46 54 e8 3d 58 11 2a bf 5c 17 2b bf
       0.2542686 0.11344199 -0.66432714 -0.6683252
0002e0 73 92 a6 3e 38 bf ff 3e 12 b4 aa bc 0b 23 6e be
       0.32533607 0.49950576 -0.020837817 -0.23255555
0002f0 1f b3 11 3e 9b 27 17 3e 01 70 02 bf e0 f2 85 be
       0.14228486 0.14761202 -0.50952154 -0.2616186
000300 c0 b3 c9 3d 29 2f 37 3e 5d 84 3f be d7 be e9 3d
       0.09848738 0.17889084 -0.18702836 0.11413353
000310 64 59 2b 3e cb 47 0b 3e 33 94 bf be ce da 22 bf
       0.16733319 0.13601606 -0.37417755 -0.6361512
000320 1d cc 1c bd 2c 6b 4f bf 2b 89 63 bf 05 13 00 bf
       -0.038280595 -0.81022906 -0.88881177 -0.5002902
000330 a9 e9 47 be 9d b3 df be cf f3 a1 3e 81 7d dc 3d
       -0.19522728 -0.43691722 0.31631324 0.107661255
000340 c5 08 16 3f e0 3f 78 3e 98 fb 53 bf 6e c4 50 3e
       0.5860713 0.24243116 -0.82805777 0.20387432
000350 00 d2 62 be ce 56 c3 be b6 50 18 bf 2d a1 3c bd
       -0.22150421 -0.38152164 -0.59498155 -0.046052147
000360 19 19 02 3d e4 3d 2c be 17 44 80 bf 8d 23 62 be
       0.031762216 -0.16820484 -1.0020779 -0.22083874
000370 79 c4 26 bf dc 01 78 bf dc 16 2c bf 92 14 81 3e
       -0.65143543 -0.9687784 -0.6722238 0.25211006
000380 25 10 d1 be 9e 23 8a 3e cd e6 84 bd 16 99 ee bd
       -0.4083263 0.269803 -0.06489334 -0.116502926
000390 b9 4e 3f 3e 83 9d d7 3e ee 39 fe 3d 74 49 f8 be
       0.18682374 0.4211236 0.12413393 -0.4849354
0003a0 37 e4 48 bf 68 3e f4 3e e2 06 f1 3e e1 2d e8 bd
       -0.7847323 0.47703862 0.47075564 -0.11336876
0003b0 bc fe b0 3e e9 3a 06 bf 16 e9 95 bb 4b ac 62 3e
       0.34569347 -0.5243364 -0.004574905 0.22136037
0003c0 c8 e1 fa 3e d0 cd ae 3d 8f 99 b6 bc 63 f1 af be
       0.49000382 0.08535349 -0.02229002 -0.3436385
0003d0 ed 85 12 bf a3 03 a5 be da e9 3d be ee 49 b9 be
       -0.57235605 -0.32229337 -0.18546239 -0.36189216
0003e0 a0 89 ea 3e 75 d2 23 3e 97 92 ea be 8a 38 58 bf
       0.45808125 0.15998252 -0.45814964 -0.8446127
0003f0 d6 63 5c bf 89 ba 99 be de 9b 07 bf 92 42 86 be
       -0.8608984 -0.30025128 -0.5297221 -0.26222664

std.constant3 f4 [32, 3, 3, 3]
000000 95 0e 08 bf 67 4b d0 be 2c 9f 1f bf 2d 58 8b 3e
       -0.5314725 -0.40682527 -0.6235225 0.2721571
000010 35 a0 33 3e 54 d3 71 3e 76 b9 22 3e 0f 11 8d 3c
       0.17541583 0.23615772 0.1589106 0.017220048
000020 21 37 4d 3c b4 a4 80 be 64 8c af be d1 de 45 be
       0.012525351 -0.2512566 -0.34286797 -0.19323279
000030 e7 a3 44 be 50 74 d2 be c8 b8 0b bf 80 71 ab 3d
       -0.19203149 -0.41104364 -0.5457883 0.08371258
000040 91 57 a3 be 8d 90 47 be c5 37 c4 bc e3 eb 11 be
       -0.31902745 -0.19488735 -0.023952374 -0.1425014
000050 5f 5c 9d 3b df 50 74 be 34 8e b5 be 24 ff 5e be
       0.0048022713 -0.23858975 -0.35460055 -0.21777016
000060 96 ce c7 bd f0 21 59 be 3b 5d ce be 7e 89 87 3a
       -0.097562 -0.21204352 -0.40305504 0.0010340658
000070 38 f9 96 3d e5 d3 fe bd fe a3 47 3e 47 0b 2e 3e
       0.073717535 -0.124427594 0.19496152 0.1699649
000080 8c a9 d5 3c cb 4d 83 be 29 e5 1c bc db ef 2c be
       0.026081823 -0.2564529 -0.00957612 -0.16888373
000090 39 4b 58 3e f4 15 5e 3d 34 cd 74 3e 30 da cb 3e
       0.21122445 0.054220155 0.23906404 0.398149
0000a0 b7 e1 96 3e 87 bc a6 3e 68 74 2c bf 1f 83 3b bf
       0.29469082 0.3256571 -0.6736512 -0.7324695
0000b0 f3 65 27 bf 20 ce 55 3d 49 01 70 bc 52 da 58 3d
       -0.6538994 0.05219853 -0.014648744 0.05294258
0000c0 68 79 a0 3e 21 fc 4c 3e 7f 4b b8 3e ba 0b b1 be
       0.31342626 0.20018055 0.359951 -0.3457926
0000d0 f7 3f b2 be 14 b1 85 be 21 92 b0 3e 18 70 92 3e
       -0.34814426 -0.26111662 0.34486488 0.28601146
0000e0 f1 1b 14 3e ad b7 d9 3d 23 eb 02 3e 1e 1c f3 3d
       0.14463784 0.106307365 0.1278501 0.11870597
0000f0 34 83 33 bd ec 9a 0e be cf 0a 10 be 1a 8c b5 3e
       -0.043826297 -0.13926286 -0.14066623 0.35458452
000100 56 4e c6 3e 75 da 28 3e bd 92 b7 be 56 a0 c1 be
       0.3873164 0.16489585 -0.3585414 -0.3781764
000110 0a fb 73 be c7 82 f8 be 07 b7 d9 be 8d 29 3e be
       -0.23826233 -0.48537275 -0.4252245 -0.18570538
000120 25 f5 a4 3e 13 c4 82 3e c9 87 53 3e 7e 5b 33 bf
       0.3221828 0.25540218 0.20657267 -0.7006148
000130 e0 ca 22 bf b4 2d 0d bf d6 b2 e5 3c 93 9f 62 be
       -0.6359081 -0.5514786 0.028039377 -0.22131185
000140 19 6d dc 3d f1 1d 0e 3d a6 b6 9c bd 7a 33 83 3e
       0.10762996 0.034696523 -0.07652025 0.2562521
000150 e9 c0 8a 3e 79 40 9e 3e b5 16 be 3e ac 39 4c 3e
       0.27100304 0.30908564 0.371267 0.19943875
000160 cb a0 75 bc 3a 1f 33 3e 83 bd 83 be cd ae cd be
       -0.014991949 0.1749238 -0.25730523 -0.40172425
000170 e8 42 c6 be 9d 2a c2 be 59 99 b2 be 2d de 2f bf
       -0.3872292 -0.37923136 -0.3488262 -0.6869839
000180 2c 01 a1 be 27 05 32 bf 81 bf 50 bf 49 8a 9e be
       -0.31446207 -0.6953911 -0.8154221 -0.30964878
000190 b3 6e 19 bf d0 36 10 bf 9b e5 9f bd b1 ca cf be
       -0.5993454 -0.5633364 -0.07807466 -0.4058433
0001a0 e8 a9 b5 be bf 0e 93 be ad be c9 be 41 a7 cd be
       -0.3548119 -0.28722188 -0.39403287 -0.40166667
0001b0 be d0 93 3d 43 8b 55 bd 87 26 1c be a9 61 29 3e
       0.07217549 -0.052134763 -0.15249072 0.1654116
0001c0 b9 78 38 3e b3 d8 f4 3d 4f 06 c2 3e db 1c 46 3e
       0.18014802 0.119553946 0.37895438 0.19346945
0001d0 af f1 69 3e 35 42 45 3c 63 c6 98 3d ea d6 3b 3c
       0.22846101 0.012039711 0.07459714 0.011464814
0001e0 0c 7c 6d be 02 ef c5 bd af 02 ee be 42 8c 6a be
       -0.23191851 -0.09664728 -0.46486422 -0.22905067
0001f0 5f 21 27 be 31 bd a6 be 51 6a 0d bf 3a 7d 9d be
       -0.16321324 -0.32566217 -0.5524035 -0.30759603
000200 d3 bb 06 bf 88 f8 5b be 91 d3 86 be 83 e7 60 be
       -0.52630347 -0.21481526 -0.26333287 -0.21963315
000210 4c 1b 17 bf c8 e3 14 bf 08 f4 12 bf 46 7c ff bc
       -0.59026027 -0.58160067 -0.5740361 -0.031187188
000220 1f c7 9f bd 4c 97 4f be 7d 6d a7 be c1 d4 ae be
       -0.07801651 -0.20272559 -0.3270072 -0.34146693
000230 e6 ae 84 be bb ea 95 bd 7f d4 1a be d0 fe 57 bd
       -0.25914687 -0.07320162 -0.15120123 -0.052733243
000240 61 2d 5f 3d 01 a0 3d 3d bb e7 49 be 04 e3 08 3e
       0.054486636 0.04629517 -0.19717304 0.1336785
000250 82 8f 25 3e 42 fc b4 3d 89 3c 59 be ec 01 83 bc
       0.16168025 0.08837177 -0.21214499 -0.015992127
000260 76 66 6d be 5c 0a 10 3b d8 e2 03 be be c4 f6 bc
       -0.23183617 0.002197883 -0.12879503 -0.03012311
000270 47 73 cf bd 3d 07 ba bd 22 90 3d be ba 46 26 be
       -0.10129409 -0.09083412 -0.18512014 -0.16237918
000280 95 52 33 be b9 fc 56 be dc 54 f4 be d1 cd d8 be
       -0.17511971 -0.20994844 -0.47720993 -0.42344525
000290 44 c8 35 bf ba 68 63 be 2d 04 c1 be 8d 00 23 bf
       -0.71008706 -0.22207919 -0.37698498 -0.63672715
0002a0 da f0 9e be 69 c3 ad be fd 6d f3 be 83 8c 54 3e
       -0.3104313 -0.3393815 -0.47544852 0.20756726
0002b0 06 c0 23 3e 60 21 d5 3d 3a 89 84 3c 53 e1 6a 3e
       0.1599122 0.104067564 0.016178716 0.22937517
0002c0 77 7e 3f 3e 38 84 1c 3e ae a1 86 3e 1b 7d 68 3e
       0.18700586 0.15284812 0.26295227 0.22703974
0002d0 ad 57 20 3c 84 98 f9 3c 62 78 f0 3d ca 30 b4 3d
       0.009786529 0.030468233 0.11741711 0.08798368
0002e0 30 e0 33 3e 2d 1d 2c bd 86 94 6c 3e f7 11 bf 3e
       0.1756599 -0.04202001 0.23103532 0.37318394
0002f0 85 82 a4 3e 0d 22 80 bd f7 c2 88 3d 5e 47 b2 3d
       0.32130828 -0.06256495 0.066778116 0.087050185
000300 4b 0c b6 be 5b 71 cc be ad 58 09 be 28 c1 8b be
       -0.35556254 -0.39930233 -0.13412733 -0.27295804
000310 3b ae 11 be 13 ad 87 be fb 67 27 3e 97 f9 36 3e
       -0.1422662 -0.26499233 0.16348259 0.17868648
000320 ab 68 97 3e 3e df 02 be dd 6b 1e be 00 af 1f 3c
       0.29572043 -0.12780473 -0.15470834 0.009746313
000330 5d 85 2d bf 90 9a 2a bf 39 2b f2 be 5e a0 7d 3e
       -0.6778162 -0.66642094 -0.472986 0.24768206
000340 43 b0 57 bb 72 d7 64 3e 81 9e 5c bc 6c f2 aa 3b
       -0.0032911457 0.22347811 -0.013465525 0.005216887
000350 dc 72 df 3c c7 88 b7 bc 96 1d 82 bd f2 d9 2c 3d
       0.027276449 -0.022404088 -0.06353299 0.042200036
000360 d2 c6 fa bd c6 93 37 3d 13 20 c7 3d 3d 39 a8 bd
       -0.12244953 0.044818662 0.097229145 -0.08214042
000370 fa ba b9 bd 87 56 f9 3c 6e 32 0c 3d 33 b1 aa bc
       -0.09068866 0.030436767 0.03422778 -0.020836448
000380 28 ae 0d 3d 8f 3c 0e 3d 2e 20 1d be d7 c9 20 be
       0.034589916 0.034725722 -0.15344307 -0.15701996
000390 48 34 92 3d 52 e5 b0 bc 44 d4 dc 3c 85 9c f1 bc
       0.07138878 -0.021593723 0.026956685 -0.02949358
0003a0 64 26 ee bd 8c 49 49 be 25 49 ee bd 02 21 c2 3d
       -0.11628416 -0.19656962 -0.11635045 0.09478952
0003b0 6c d6 bf 3d 9f 75 c7 bc 84 44 b8 bd 1a f0 6a bd
       0.093670696 -0.024348078 -0.08997443 -0.057357885
0003c0 a2 92 3f bd 6e 42 23 be 13 32 6a 3d 41 d4 1d bc
       -0.0467707 -0.1594331 0.05717666 -0.009633125
0003d0 f7 4a 82 3c a8 5b b1 3d 22 10 a5 be 2f 11 04 bf
       0.015904887 0.0866006 -0.3223887 -0.5158872
0003e0 9b d4 02 be ac a2 e9 be 04 01 1f bf 01 8e 86 be
       -0.12776415 -0.4563192 -0.62110925 -0.26280215
0003f0 41 8a aa 3e ab 5b 88 3e f0 94 be 3e 77 06 e8 be
       0.33308604 0.26632437 0.37223005 -0.45317432

std.constant4 f4 [10, 3, 3, 32]
000000 41 6e 67 3e 63 08 9b 3e 06 1f e9 3e 8b 47 b5 3e
       0.22600652 0.30279836 0.45531482 0.35406145
000010 37 f9 b6 3e 51 df e6 bd 94 bb 14 bf c1 60 0f 3e
       0.3573701 -0.11273063 -0.5809872 0.14001752
000020 19 17 11 3d 8f 1a ae 3c 3c 3a 34 3e 69 98 7e 3d
       0.03542242 0.021252898 0.1760034 0.06215707
000030 8d 13 9a 3e 54 39 ae bd e6 63 82 bf 65 4b 9e 3c
       0.3009304 -0.08507028 -1.0186737 0.01932306
000040 d9 3d c6 3d 14 f1 27 3f 6d 85 9f 3e e6 96 86 3e
       0.09679765 0.6560223 0.31156483 0.26287
000050 f1 22 a2 bd 5b df de bd 22 2c 29 3e 12 03 0d 3e
       -0.07916821 -0.108824454 0.16520742 0.13770702
000060 d8 a0 a4 3d 4c ad 50 be ac 09 89 3e 9e 29 bb be
       0.08038491 -0.20378608 0.26765192 -0.3655519
000070 47 19 e8 bd de af a8 be 1e e3 9d bd 82 1b bd 3e
       -0.11332946 -0.32946676 -0.07709335 0.3693505
000080 76 8a 13 3f bb d7 b7 3e a4 29 a9 3d 66 3b ce bc
       0.5763315 0.35906777 0.082598954 -0.025174808
000090 7b 93 a8 bb 35 b4 01 be 2b 5c a8 be 7e 83 71 bd
       -0.005144534 -0.126664 -0.3288282 -0.05896329
0000a0 9e a0 87 bd 17 e0 12 3e f2 bd 1b be 70 7d 65 3d
       -0.06622432 0.14343296 -0.15209177 0.05602783
0000b0 9e e6 42 3e 4b 6f 0f 3d b2 a7 f2 be 2f 0d ba 3e
       0.19033286 0.035018247 -0.47393566 0.36338183
0000c0 0c c1 54 bd 24 8e e7 bc 9a c4 03 3e 2e 2a d7 3d
       -0.051941916 -0.02826602 0.12867966 0.10506092
0000d0 de 48 ac 3c 34 ef 81 bc 8a 0e e6 3e 7d 31 14 3e
       0.02103084 -0.015861131 0.44932967 0.14472003
0000e0 1d a0 74 3d 77 cf bd be 5f 86 4c 3e 1f ae 9c 3d
       0.05972301 -0.37072346 0.19973134 0.076503985
0000f0 77 c2 d0 bc 10 65 f7 3e ef b9 be 3d 8f ea 84 3e
       -0.025483353 0.48319292 0.09312808 0.25960204
000100 2e e9 db 3e 01 cc 0c 3d 5c 66 f9 3d eb 77 d9 be
       0.4295134 0.03437424 0.121777266 -0.42474303
000110 0d 02 4b bd de 08 b6 bd 3c b2 d5 bd 4a 4d fc be
       -0.049562503 -0.0888841 -0.10434386 -0.49277717
000120 56 a5 a4 3d e6 05 4e be e6 ae 3f be 50 94 58 3e
       0.08039348 -0.20119438 -0.18719062 0.21150327
000130 1d de 1c 3e 6c 8f 8f 3c 74 8b cd be c0 eb f8 3e
       0.15319104 0.017524444 -0.40145457 0.48617363
000140 24 c8 0e be 83 e5 18 3d 88 7c 76 be 5c 33 5e be
       -0.13943535 0.037328254 -0.24070942 -0.2169928
000150 f2 49 08 bc 51 f7 40 3d ef da 95 3e c0 8c 05 bf
       -0.008318411 0.04711086 0.29268596 -0.5216789
000160 43 b0 51 be af 31 fe be f5 76 cc 3e bd ee 46 3e
       -0.20477395 -0.4964728 0.39934507 0.19427009
000170 04 a0 5a 38 15 ef d2 bc 9a 84 21 bd b6 b8 4a 3d
       5.2124276e-05 -0.025748769 -0.0394331 0.04949256
000180 51 25 82 3e d5 70 86 be 8d 0f 1c bb b0 b5 b6 be
       0.25419095 -0.2625796 -0.002381298 -0.35685492
000190 68 c1 4b 3e 2b 09 58 be 5b 07 ad be 7f 5a 11 bf
       0.19897997 -0.21097247 -0.33794674 -0.5677871
0001a0 64 fb 69 bd c8 83 54 bf 13 a7 c9 bd c1 3a 2c bf
       -0.05712451 -0.8301358 -0.0984632 -0.6727715
0001b0 d2 5d bf 3d 4e bc 4a 3c 00 1c f0 be 40 63 93 3e
       0.09344067 0.012373997 -0.46896362 0.2878666
0001c0 b1 b8 40 bd 33 a1 21 3e e3 08 d0 be 62 07 34 bf
       -0.047051135 0.15784149 -0.4063178 -0.70323765
0001d0 dc aa 9c 3d d5 6b 04 3c 25 28 c9 3d 6f b9 e3 be
       0.07649776 0.00808235 0.0982211 -0.44477412
0001e0 e8 1d bf bd b6 61 68 be b1 40 0a 3f 3e 4a e9 be
       -0.09331876 -0.22693524 0.5400496 -0.45564455
0001f0 b1 b8 07 3d 6e 4f 7d be 21 40 31 bd 1c eb 18 be
       0.03313512 -0.24737331 -0.04327405 -0.14933437
000200 8f c9 0c be b0 92 81 be 05 05 b2 be f4 eb b2 be
       -0.13748764 -0.25307226 -0.34769455 -0.34945643
000210 9e 8e cf 3d ed 39 1a be c3 17 2e bf 18 31 d5 be
       0.10134624 -0.1506116 -0.6800501 -0.41639018
000220 6a ae 91 bb 17 39 e4 be f1 21 17 be 06 21 18 bf
       -0.0044458406 -0.44574806 -0.14759041 -0.5942539
000230 57 5d b7 be bc 92 4c 3d 09 ec 26 bf 3f 2c 13 3e
       -0.358134 0.049944624 -0.6520391 0.14372347
000240 09 f7 34 be b1 c1 e7 be c5 cf 99 be 69 ff 0f be
       -0.17672361 -0.45264962 -0.30041328 -0.14062275
000250 81 e6 06 3c 62 4f 32 be 30 9f f3 be 43 1b bc be
       0.008233667 -0.17413095 -0.47582388 -0.3673955
000260 d2 8a d8 bd 11 fd c3 be d6 20 6f be 37 33 c8 be
       -0.10573353 -0.38279012 -0.2335237 -0.39101574
000270 b0 10 a2 bd 8f 9c 20 be 16 59 54 bd 38 8e 8e be
       -0.07913339 -0.15684722 -0.05184277 -0.2784288
000280 c3 23 48 bd 27 f8 f6 be 2c 02 f4 be 81 a7 a6 be
       -0.04886223 -0.482362 -0.47657907 -0.3254967
000290 7e a1 31 3e 8a 30 9e be e7 2e 13 be 20 ab 62 bf
       0.1734676 -0.30896407 -0.1437336 -0.88542366
0002a0 17 64 1e bd 7f a1 4c bf b8 6f ca be 26 3b ba be
       -0.038669672 -0.79933923 -0.3953836 -0.36373252
0002b0 4b 0f be be 9a 17 f2 3c c1 33 13 be e7 ab 4a be
       -0.37121043 0.02955227 -0.14375211 -0.19792138
0002c0 64 9e 15 bf ce 7c d9 be 8b 4d 0d be 30 64 ff be
       -0.5844481 -0.4247803 -0.13799112 -0.49881124
0002d0 75 77 d4 3c d5 f5 70 3d b2 d1 bd 3d 77 f5 09 bf
       0.025935868 0.058828194 0.09268512 -0.53890175
0002e0 03 59 21 be f4 a6 2c be 62 5d a6 be c9 0e 6d 3e
       -0.15756612 -0.16860563 -0.3249312 0.23150171
0002f0 e6 20 5b bb 28 df 99 be 27 7e 3a bd d6 b9 71 be
       -0.0033436357 -0.30053067 -0.045530465 -0.23606047
000300 61 ad 89 be 8a 43 39 be 26 ea 1a bf ed fd d9 3e
       -0.2689009 -0.1809217 -0.6051353 0.42576542
000310 22 9c e0 3d 2b f8 dc bd c5 8b 26 3e a4 e7 da 3d
       0.1096728 -0.10789522 0.16264255 0.10688713
000320 84 3a 05 be 0b 49 92 bc 9b 70 17 3c 48 1d 1f bf
       -0.13010603 -0.017857095 0.009243156 -0.62154055
000330 09 10 f2 bd ed 79 c6 3d 30 4d 56 3e b1 16 89 be
       -0.11819465 0.09691224 0.20927882 -0.26775125
000340 2d 01 94 bd 10 28 31 3e 60 b8 88 3e e5 e3 55 be
       -0.07226787 0.17300439 0.26703167 -0.20887716
000350 fd 1b 54 bd 78 ae b2 bd 8f 92 88 3e 5d 21 5a 3e
       -0.051784504 -0.087246835 0.26674315 0.2130179
000360 0d e2 42 bc d2 3b e8 3e 8a ac 58 3d f9 70 00 be
       -0.011894715 0.4535814 0.05289892 -0.12543096
000370 e1 a1 92 3d 43 68 fd bb 5d e9 38 bd 33 8e 4b bc
       0.07159782 -0.007733376 -0.045144428 -0.01242404
000380 dd b5 c6 be e7 67 64 bd 00 23 84 bd 8e a5 5c be
       -0.38810626 -0.05576315 -0.06451988 -0.21547529
000390 40 09 8e bc 38 7d a1 3e e1 c4 90 3e f3 c0 b0 3d
       -0.017338395 0.31540847 0.28275207 0.08630552
0003a0 88 c6 44 bd a7 de 26 bc 25 aa b9 3c 58 90 4c be
       -0.048040897 -0.01018492 0.022664139 -0.19976938
0003b0 e2 5c 27 3e 4d ef 9e 3c de 75 9d 3e be a2 9a 3e
       0.16344026 0.019401217 0.30753988 0.30202287
0003c0 02 ad 37 3d 09 df ec be 40 1e 0a 3d 0e 8e 2f 3e
       0.044842727 -0.46263912 0.033720255 0.17144033
0003d0 8e cf 8d 3d bb b0 21 3e d0 93 19 be 8f 32 4c 3e
       0.069243535 0.15790074 -0.14997792 0.19941162
0003e0 e1 a1 8c 3d b5 34 08 3f a2 2d 02 bf 19 33 9e 3e
       0.068668135 0.53205425 -0.5085088 0.3089836
0003f0 cf 55 32 bd 1a 7b f1 3d ea 9d ca bd ed b3 bc 3d
       -0.043538865 0.11791058 -0.09893401 0.092140056
