autopilot/models/maggie_tflite/speed_model.tflite (tflite, 97964 bytes, 7 tensors)

dense1/bias f4 [20]
00000000: 0be3 49bf 539a 1ebf 6b8c d33c f694 d33e
00000010: 2014 bd3e 4f19 1dbf cd2b 073f f18b 23bf
00000020: 13c9 12bf f4b8 403e 486c fe3e e2f6 603e
00000030: df72 f23d 125f e53e 5830 033f 536d 10bf
00000040: 7d88 21bf ad94 d23e 078c f2bd 7ff5 41bf
-0.78862065 -0.6195423 0.025823792 0.41324586 0.36929417 -0.6136674 0.5280121 -0.6388541
-0.57338065 0.18820554 0.49691987 0.21969178 0.11838316 0.44799095 0.5124564 -0.56416816
-0.6309889 0.41129056 -0.11843114 -0.7576522

conv2/bias f4 [10]
00000000: d81c b2be b76d 3d3e cda8 f6bd d588 f7be
00000010: b018 80be 180d ccbe fc8e 333e f005 cdbd
00000020: a66a 3abf b047 91bc
-0.3478763 0.18498884 -0.12043915 -0.48346582 -0.25018835 -0.3985374 0.17535013 -0.10010898
-0.7281898 -0.017734379

conv1/bias f4 [32]
00000000: 6a6d 383e 3444 7abd e2fc 753e 1e9a 903e
00000010: d4f7 09bd 0055 62bd 5020 a1bf 7773 a0bf
00000020: f45e d4be d69f bbbe 570d a13c 5bb0 c93e
00000030: a6ad 9f3d 53e3 56be 47c6 9b3e e212 8d3e
00000040: b7b0 4c3e 848a 753e dba0 6c3e 9963 05be
00000050: dee0 51be 25d6 abbd ae50 40be 1ff1 b2bb
00000060: fca9 84be 166f 91bc d5af a6bf bae3 52bf
00000070: 6fc7 553e e204 fe3c a290 06be 0a0c 3fbe
0.18010488 -0.0611002 0.24022248 0.28242582 -0.033683613 -0.055256844 -1.2587986 -1.2535237
-0.41478693 -0.36645383 0.019659681 0.3939236 0.07796793 -0.20985155 0.3042471 0.2755347
0.19989286 0.23978621 0.23108236 -0.13026275 -0.20495936 -0.08390454 -0.18780777 -0.005460873
-0.25910938 -0.017753165 -1.302241 -0.82378733 0.20876859 0.031008188 -0.1314111 -0.18656936

std.constant1 f4 [20, 1000]
00000000: 1e0f 993e fe81 4abe d2a8 eebe 56d1 16bd
00000010: a36c bd3d f149 843e ce6a ee3c 837a b73c
00000020: 14b0 56be 7fb3 7c3e f159 073f 816c 953d
00000030: 4943 ba3c 7daf 7cbe 8163 e6bd 8d09 363e
00000040: 5d73 21bd 9059 0d3d 1479 6e3d a723 abbd
00000050: 5271 103f 56b1 19bd cb7a 00bd 3403 23bd
00000060: fa76 0dbe ec88 393e 30a0 d0be c70f 2bbc
00000070: a05d 183f e2c2 0ebe 6613 763f c8f2 a1be
00000080: 2770 7b3e 0548 593e 841f 6abd 13f8 33bd
00000090: e0c9 91bd fddd 9f3d deb2 8abd 0f98 6d3e
000000a0: 855f 2c3f 8930 2ebe a7b2 ab3e 75cb 3b3e
000000b0: 89f1 a3bd e4d2 7abd d343 3cbf 11e2 823a
000000c0: a0c8 b9be f5f2 a13d 6ced 7e3e 66da 693d
000000d0: e2b0 373e ae22 563e 6186 8fbe c76d 113e
000000e0: 939a d73d 9f76 c53c 9f61 67be 041c 0e3f
000000f0: 7e7f 9fbd 3e79 8abe 7c39 16bf 25ec cabd
00000100: 901d 04bf c49e bcbc 68ff b5be ebd8 49bd
00000110: c1f2 9d3e 7b9b 4dbe 2baa 95be 45ed 45be
00000120: 1090 09be 834e 253e d830 8cbe fffd 9abd
00000130: 344b e9be 2936 083d 7f17 26bf c8ef e43d
00000140: 4d26 ed3d 9f1c 63be 5841 7d3d bb66 ff3e
00000150: dc9e 933c 60a2 a33c c5ce 79be 1517 b6bc
00000160: 37d9 18be f532 1dbe 2683 92be 1811 8e3e
00000170: 1dc9 f1be 9198 003e 4af2 7a3e b707 aabe
00000180: dcb1 2dbf 4b57 9bbd 90f8 df3d 7989 b5be
00000190: 2d6f a03d 0f45 7f3c f9e4 abbe bbde e0be
000001a0: 4668 063f ff4c 273e ef07 66be e0d4 8a3d
000001b0: 9025 72be 35f9 0dbb d5e2 a7be bd34 7e3e
000001c0: a50e 72bd 5f7e 81bd 712c 6c3e 4d96 9d3e
000001d0: 4ca5 a7bd 3ee4 423d 7997 bdbd bdf8 643e
000001e0: 2c3e 9c3d 6b89 ca3d 9e45 6f3e e188 08be
000001f0: 1689 eabd d3ed 3a3e fc2e a83d 90e1 613d
00000200: 9ad9 503d 83f0 a53e d7a3 933d 6681 d6bd
00000210: 1beb 6a3e 251e 9ebe b995 2abe 800c ea3e
00000220: 3b0b f93a 18e0 533d ef40 63be 79a5 b7be
00000230: 4fd4 293e 0794 ac3d 2ae6 78be 0c0f 09be
00000240: a5fd 83be 3f4f 683e 9440 943e b390 fbba
00000250: 09ae a83e 776f 9abe 0e01 1a3e b725 d2bd
00000260: 0a1f 0bbf ccb1 cbbd 6482 99bc 30a9 b9bd
00000270: 2a84 4fbd 5f20 71bd 6d57 04be ede3 3dbd
00000280: 0bdf 9c3d 3290 1a3d 94d1 26bf 1575 a63c
00000290: 0626 813d 7284 9fbd 6f37 02bf f7be 573d
000002a0: 44c5 00bf 1de4 b83c b9c3 a33e f8d3 0abe
000002b0: d219 2bbf 0f3c 853e a405 9c3d 49c7 ebbd
000002c0: d220 15be 4920 c2bd 1d11 913d 4545 3ebd
000002d0: a3d9 a63d d560 083b aab5 edbe cb26 61bb
000002e0: a030 023e 2ada 03be 5c4c 4abe fd10 f5bc
000002f0: 394c b4bd 934e 86be a82d 113f 1db5 47bd
00000300: 4bdb a1be c348 8abd 0f1d 4cbe 0952 26bf
00000310: 3ade f4be d9b0 313d 1b70 3bbe 9268 48be
00000320: 5dfe 65bf 9601 933e ab52 08bf 8b9b 1cbf
00000330: 91a5 3fbe ee5b d73e 8065 05bf d231 0a3c
00000340: fe18 b6be beb4 f2bb 7b6f 92bf 39b1 0c3e
00000350: 6ddf c23e 9e0a 98bd e481 2a3d faf0 b63e
00000360: bbe0 37be 9c6e 473d 8373 0dbf 5f6e 48be
00000370: 14a5 263e ef07 8b3e 4438 d03e feb8 e2bd
00000380: 1bb2 a5bc 061d 9e3e 6a7f 233f 462d c0bc
00000390: f511 1b3f 7941 aa3e 8142 7dbe 2311 c03e
000003a0: 9324 a33e 88cc 29be 7a0b f0be a4aa 133d
000003b0: cdda fd3e 02ad 193d 9cce 9d3e f426 bc3e
000003c0: 6d5d 1dbe 738a 84be 00f1 b83e acf6 57be
000003d0: 8b80 15bf 8934 473e 25e5 c53e 4855 b43c
000003e0: cba0 3f3f ce1f dfbd f1d4 29be b124 9d3c
000003f0: 5d16 39bf c84e c2be d131 2bbe 31f0 993e
0.29894346 -0.1977615 -0.46613175 -0.036820732 0.092492364 0.25837663 0.029103663 0.022397285
-0.20965606 0.24677847 0.52871615 0.07296086 0.022737162 -0.24676318 -0.112494476 0.17777081
-0.03941666 0.03450924 0.058220938 -0.083564095 0.56422913 -0.037522636 -0.031367105 -0.039797977
-0.13814917 0.18118638 -0.40747213 -0.010440773 0.5951786 -0.1394153 0.9612335 -0.3163054
0.24554501 0.2121888 -0.057158962 -0.043937754 -0.07118583 0.07806013 -0.067723975 0.23202537
0.6733325 -0.17010702 0.33534738 0.18339331 -0.080050536 -0.061236277 -0.7354099 0.0009985586
-0.36285877 0.079076685 0.24895257 0.057093047 0.17938569 0.20911667 -0.2803221 0.14202033
0.105275296 0.024104415 -0.22595833 0.555115 -0.07787989 -0.27045625 -0.58681464 -0.09908322
-0.5160761 -0.023024924 -0.35546422 -0.049279135 0.3084927 -0.20078842 -0.2923139 -0.19328792
-0.13433862 0.16143231 -0.27381015 -0.07567977 -0.45565188 0.033254776 -0.648796 0.11178547
0.11579571 -0.22178887 0.061829895 0.49883065 0.018020086 0.019974887 -0.24395283 -0.022227803
-0.14926611 -0.1535147 -0.28615683 0.27747416 -0.4722375 0.125582 0.24506488 -0.3320901
-0.67849517 -0.07585009 0.109360814 -0.35456446 0.07833705 0.01558043 -0.3357313 -0.4391993
0.5250286 0.16337965 -0.22463964 0.06778884 -0.23647141 -0.0021663432 -0.32790247 0.24824806
-0.059095997 -0.063229315 0.23063828 0.30778733 -0.08185825 0.04758095 -0.09257407 0.22360511
0.07629046 0.09889492 0.233664 -0.13333465 -0.11451928 0.18254785 0.082120866 0.055146754
0.05098877 0.32410058 0.07208984 -0.104738995 0.22941248 -0.30882373 -0.16658677 0.45712662
0.0019000539 0.051727384 -0.22192739 -0.35868433 0.16584896 0.084266715 -0.2430655 -0.13384646
-0.25779453 0.2268648 0.2895552 -0.0019192904 0.32945278 -0.30163166 0.15039465 -0.102611
-0.54344237 -0.099460214 -0.018738933 -0.09065473 -0.05066315 -0.058868762 -0.12923975 -0.046359945
0.076597296 0.03773517 -0.6516354 0.020319501 0.063060805 -0.07788934 -0.50865835 0.052672353
-0.50301003 0.02256971 0.31985262 -0.13557422 -0.66836274 0.26022384 0.07618263 -0.1151262
-0.14563301 -0.09478814 0.07083342 -0.04645278 0.0814698 0.002080967 -0.4642766 -0.0034355398
0.12713861 -0.12876192 -0.19755691 -0.029915327 -0.08803601 -0.26231822 0.5671029 -0.048756707
-0.3161262 -0.067521594 -0.1993296 -0.64968926 -0.47825795 0.043381546 -0.18304484 -0.1957114
-0.8984125 0.28712147 -0.5325114 -0.6117484 -0.18715502 0.42062324 -0.52108 0.00843473
-0.35565943 -0.0074068 -1.1440271 0.1373948 0.38061085 -0.074239 0.04162778 0.35730726
-0.17956822 0.04868947 -0.5525438 -0.19573353 0.1627391 0.2715449 0.40667927 -0.11070441
-0.020226529 0.30881518 0.63866293 -0.023459088 0.60574275 0.33253077 -0.247324 0.37513074
0.3186384 -0.16581929 -0.46883756 0.036051407 0.49580994 0.03751851 0.30821693 0.3674847
-0.1536767 -0.25886878 0.36121368 -0.21090192 -0.58399266 0.19453634 0.38651386 0.022013322
0.74854726 -0.10894738 -0.16585137 0.019182535 -0.7229975 -0.3795073 -0.16718222 0.30066064

std.constant2 f4 [1, 20]
00000000: ba7f babd 1c2e ebbe 792f c13e 63eb 073f
00000010: 2d85 063f a5c7 10bf 9490 d63e b0fd 26be
00000020: 613b 30bf 448c f03e 7ea1 533f ec2f 003f
00000030: d3d8 f03e f856 e03e 1437 0c3f 1765 0fbf
00000040: 0e73 eebe 6478 563f 7b04 80bf f060 04bf
-0.09106393 -0.45933616 0.3773153 0.53093547 0.5254696 -0.56554633 0.4190718 -0.16307712
-0.68840605 0.46982014 0.8266829 0.5007312 0.47040424 0.43816352 0.5477154 -0.56013626
-0.46572155 0.8377745 -1.0001367 -0.51710415

std.constant3 f4 [32, 3, 3, 3]
00000000: 5110 edbe 7c3c edbe 0d83 efbe 31e6 94be
00000010: ea47 34be 829f f3bd 55ba 38be 01e1 a0be
00000020: fac0 7bbe 1865 13bf 25eb f0be 9378 d8be
00000030: fc48 efbe 1da8 c4be 0e6e 27be 373b 08bf
00000040: 4bfe dcbe 2a24 e6be b09f 2e3e c471 183e
00000050: ff42 a03e c299 523e 14fc 773e a784 713e
00000060: 6f34 7b3d b8bf e43d 56c3 063e c4ec 8dbd
00000070: 4764 0abe bdd3 d63c 477c aebd b843 653c
00000080: 5d14 12be a615 013b e92c 823c 64ec 11bd
00000090: 6b12 aabd 5526 94bd 1ec7 55bd 34f5 06be
000000a0: 21ec ec3d 1ffe 5f3c ddad 18bc 8180 463d
000000b0: 4daf 003d b1db 3c3d 54dc fabd a9db 23bc
000000c0: a017 fabd fa49 2a3d 42ea 9f3d f6f9 ff3c
000000d0: d57a d8bd e127 353c 8746 d83e 7231 d23e
000000e0: 3b1c 2d3e 2ae4 283e 09a8 183e 022c 023e
000000f0: 3df3 9e3e 3714 903e e1a2 ac3d af84 a2be
00000100: 7e25 f7be 2ccf f5be 744e 5cbe 0b72 bdbe
00000110: 93e1 f8be 6f1d 66bd 01f1 38be 2254 81be
00000120: 4e2c 6abe 658b 3fbc c1bd 63be ee47 20be
00000130: 3c13 843d e4de 32be bdee b4be c9d9 31be
00000140: 477b 73be 0f00 a53e dd8d 793e cadb b03d
00000150: c449 e13d 0da4 89bd 61cf 19be b240 693e
00000160: 27a0 8f3e d7c5 aebd f307 a53d 88b3 59be
00000170: 3922 fdbe 02d0 743e 2903 0cbe f9b0 c4be
00000180: a54e 993e d816 66be e456 e8bd 981f fbbd
00000190: 6481 c4be efab 17bf a91e b63b 52fa aebe
000001a0: 2649 06bf e59e 04be ea6a 59be 7288 16bf
000001b0: 509a 52be 8361 a9bb 45ca 1b3d 4488 16be
000001c0: 1dc9 353d e1d6 6f3d a563 8dbd 19a0 0ebd
000001d0: ae2c e1bd 1ee2 40bd fc11 99bd 4b9e 24be
000001e0: b7cb 5e3d 4c42 1bbe 79ce 0f3d dbf8 dc3c
000001f0: a70b 01bd 5337 30be 56c1 4abd 2835 0c3d
00000200: 79df 783d c2f9 febd 5381 bc3d 4bed 32be
00000210: 5846 16be 10ff 16be 7ec5 a83c 499f b5bd
00000220: 8461 8abc 20ba 873d 0f62 743c e30f 863d
00000230: 7371 75bd af1c 33be 27ed 3e3d 77ad 52bb
00000240: bfaa 2b3d e018 12bc d65d 933c 78d5 0cbe
00000250: 50c6 d03d f960 96bd 5589 5dbd fd7c 9f3b
00000260: eee3 32be e72c 94bc 831b 19be af8a c53d
00000270: 007d 98bd 0ea7 01be 447e edbd e1c7 a83d
00000280: 9e02 26be fb85 12be d134 ae3d 4acf a4bd
00000290: 0075 10be 41c0 e43e 4bb1 793e 7b13 773e
000002a0: 1574 f43e 476c bb3e 148c a43e 2a93 15be
000002b0: 1ef7 76be 74c8 b6be 3a2f 883e 83fa 9c3e
000002c0: fccb d73d 39a5 283e 1b66 243e 7e4b 5f3e
000002d0: d652 8fbc ad87 34be 7523 84be 0cee 9b3e
000002e0: b0dd 983e fd79 413e f1c1 123e a053 283e
000002f0: 309d 3fbc 456f a7b9 f238 8bbe 4949 49be
00000300: 8d8f 603d cc71 293c 3821 16bc f0bb b03e
00000310: 717d 2c3e 3e41 1f3e d0f0 cd3d 1c8b 11bc
00000320: d35b 893c 42ce e23e ff1b 9b3e 4c73 0c3e
00000330: 0901 063f 5d66 cd3e 7cd1 3a3e d1ac 273d
00000340: 3bd9 bdbd 293d fd39 0330 9d3e 7a4d 153d
00000350: b445 0d3e 7a86 c83e 55b2 383e c557 8f3e
00000360: 9e19 5fbd 68fa 5abd 59cd 0dbe 1ca4 4c3c
00000370: be9c eebb 5cdc c5bc 15e8 fd3d 4666 e93d
00000380: aaf1 193d 0267 f4bd 3182 23be bd35 54be
00000390: 226a a4bd d3b3 2bbe 2ed2 5fbd f5ca e4bc
000003a0: 9e7f 2fbd 9c56 35bd ab7d 67be db3a 64be
000003b0: eb7b 0ebb 8e0a debb c62a b13b cb31 50bd
000003c0: 06aa 5e3d 3de0 ecba b57b ac3a f9e2 3dbe
000003d0: 124c adbd 7da8 debd 8e29 bc3d 8b63 cbbd
000003e0: b73c e43c 6efb 943d ef9a 253d 6dfa 2a3d
000003f0: aa2b 3cbe 04d5 d1bd b008 e6bc 3191 263d
-0.4630151 -0.46335208 -0.4677967 -0.29081872 -0.17605558 -0.11895658 -0.1803983 -0.31421664
-0.24585333 -0.5757613 -0.470544 -0.4227949 -0.4673537 -0.3840951 -0.16350576 -0.53215355
-0.4316276 -0.44949466 0.17053103 0.14887148 0.31301114 0.20566466 0.24217254 0.23585759
0.0613293 0.1116938 0.13160452 -0.06929925 -0.13514815 0.026224012 -0.08519798 0.013993196
-0.1426558 0.0019696741 0.015890555 -0.03562583 -0.08304294 -0.07233874 -0.052191846 -0.13179475
0.115684755 0.013671427 -0.009318796 0.048462395 0.03141718 0.04610795 -0.122490555 -0.0100011015
-0.12211537 0.041574456 0.07808353 0.03124712 -0.10570303 0.011056871 0.42241308 0.4105335
0.169053 0.16493288 0.1490785 0.127121 0.3104495 0.28140423 0.08429504 -0.31741855
-0.48270792 -0.48009622 -0.21514302 -0.3700107 -0.486096 -0.056180414 -0.18060686 -0.252595
-0.22868463 -0.011690949 -0.22240354 -0.15652439 0.06448981 -0.17467839 -0.35338393 -0.17368235
-0.23777495 0.32226607 0.24370523 0.086356714 0.11000398 -0.06720743 -0.15020515 0.22778586
0.28051874 -0.08533829 0.08058157 -0.21259892 -0.49440172 0.23907474 -0.1367308 -0.3841627
0.29942814 -0.22469652 -0.11344698 -0.122618854 -0.38379967 -0.59246725 0.005557854 -0.34175354
-0.52455366 -0.12951238 -0.2123219 -0.5880195 -0.20566678 -0.005169095 0.038034696 -0.14700419
0.04438125 0.058554534 -0.06903771 -0.03482065 -0.1099485 -0.047090642 -0.07474133 -0.16076009
0.054393496 -0.15162009 0.035109017 0.026974132 -0.031505253 -0.17208605 -0.049500786 0.03423038
0.060759995 -0.12449981 0.09204354 -0.17473333 -0.14675272 -0.14745736 0.020601984 -0.08868272
-0.016892202 0.066272974 0.014915957 0.06545999 -0.059922647 -0.1749141 0.046612885 -0.003214685
0.041910883 -0.0089170635 0.01798908 -0.13753307 0.10194075 -0.07342715 -0.05408605 0.0048671947
-0.17469761 -0.018087817 -0.14951901 0.096455924 -0.07445717 -0.12661383 -0.11596349 0.08241249
-0.16211936 -0.14308922 0.08506168 -0.0804735 -0.14107132 0.44677928 0.24384038 0.24128525
0.47744814 0.36606047 0.3213812 -0.1460692 -0.24117705 -0.3569981 0.2659853 0.30659875
0.10536954 0.16469277 0.16054575 0.21806142 -0.017495554 -0.17629881 -0.25808302 0.30455053
0.29856634 0.18894191 0.14331795 0.1643815 -0.011695191 -0.00031935624 -0.27191883 -0.19656862
0.0548244 0.010342073 -0.009163193 0.34518385 0.16844727 0.15552232 0.10055697 -0.008883264
0.016767418 0.44297987 0.30294797 0.13715857 0.5234533 0.4011716 0.18243974 0.040936295
-0.09269949 0.00048301488 0.30700693 0.03645084 0.13796121 0.39165097 0.18036778 0.2799665
-0.05446779 -0.053461462 -0.13847865 0.012490299 -0.0072818687 -0.024152927 0.12397782 0.1139646
0.037583984 -0.1193371 -0.15967633 -0.20723625 -0.08028056 -0.16767816 -0.054643802 -0.027928809
-0.042846315 -0.04427205 -0.22606532 -0.22288077 -0.0021741341 -0.0067761606 0.0054067103 -0.050828736
0.054361366 -0.0018072199 0.0013159426 -0.18543614 -0.08461775 -0.1087198 0.091876134 -0.09931096
0.027860982 0.07274519 0.04043096 0.04174273 -0.18376032 -0.10245708 -0.028080314 0.04066581

std.constant4 f4 [10, 3, 3, 32]
00000000: d80b d7bd fc4d 633d 88e9 da3d f451 c5bc
00000010: 11b1 c1bc 500c 0dbd a83e d0be 1a2e b3be
00000020: 3f99 ee3d cc57 c0bd 6dd0 0fbe ab6d be3e
00000030: 3da6 ba3e 7cdf ecbd 3dfb 37be 0f3a fa3e
00000040: f102 b03d 76c8 1d3b 21d0 32be ac6e abbd
00000050: 1967 38be 820c 553d 0df4 733e b5b1 8b3a
00000060: 4c87 b83d e53b 1bbd a74c 62be b1c6 4f3d
00000070: a52d 1b3e f7fb 5339 e3e6 efbe b49f 30be
00000080: 2e5e 7dbe 4232 d3bd bda6 8f3c 13b2 fe3e
00000090: 858d 28bd 01a9 0c3d 8d61 f63e dc05 013f
000000a0: 0b32 8f3d a237 00bd 12e5 383f db8d febe
000000b0: bcd9 193f 6918 c2be 2b0d 253e 8f10 9e3e
000000c0: 923f 6b3e 3761 fcbc 948f 373e 3801 efbe
000000d0: 5de3 323c 819c 14bb 3cac 87ba c112 aabe
000000e0: 2fb6 2e3e f1f9 413b 2dd2 f23e d6a1 123f
000000f0: bb11 3d3e 1292 2c3c c12a fd3d 7ad1 42be
00000100: e609 49bf 4857 9d3d adc4 a7be 81a7 d33d
00000110: 2fcd 38bd c3be dcbc 4b2c 5d3f 45a2 3a3f
00000120: 0d69 cd3e 7ba8 bf3e c450 4a3f 45bb 9dbe
00000130: ca54 213f ad2f 013e 8f59 dfbe bac3 abbd
00000140: acdb 963e 397a 86be 74b9 5ebe b506 d4be
00000150: 56c2 cb3d 7f47 933d aad1 b93e 3979 f03e
00000160: 545b bb3e f0ed 2dbd f93b 363f 45f6 443f
00000170: 6d84 33bd 3963 fa3e b5e1 06bd 1c1e 093e
00000180: bbf8 4bbf e6f3 8b3d 5527 2ebf fa11 66be
00000190: 9a47 a4ba 5d59 4b3d 4a2a 91be 0ff9 dbbd
000001a0: db47 f53c 21e7 04bd 78c4 3d3e 7cb1 d4be
000001b0: c45f 11bd b23a 043e eb7b 09bf cc45 78bf
000001c0: f76d cebe 2659 acbe 3f62 10bf d8e7 a3be
000001d0: b443 00be 248a 463d ad04 953d c4e7 b7be
000001e0: c6fb f6bd d226 6cbd 334f febe 7501 d1bc
000001f0: 86d6 9abf 398b ecbd 9b18 6a3e 9912 47be
00000200: 7142 08be 8b91 da3c bc24 a6be c12d 0f3c
00000210: ebef 863d 07fe 383c 6b8b bdbd 0024 dbbc
00000220: efd3 10bd 2ca0 fbbd 2401 9a3e 416d 18bf
00000230: 3b25 093f 47d1 43bc d51e 10bb 1528 36bf
00000240: 8c37 ed3d 41c0 d3be 7ba6 cebe 086d 17be
00000250: efc1 cdbd 5666 73bd 65d5 0bbf a9b8 e9be
00000260: f75c 97be e1a8 31bd 02f4 a2bd 06f8 b1be
00000270: 364f 08bf 0e2a a83d 8cdb 25bd 3d3f 24bf
00000280: c238 52bf 915a d43d df12 8b3a 04d6 33be
00000290: 85dc 3e3d ed86 46bc d479 b63e 8f9d 753e
000002a0: 33e0 5a3e 655e 4e3e c578 df3e 17c1 c7be
000002b0: fa2e 2c3f df9b e5bc 9c2f e4be 76dc 63bf
000002c0: 094d d33e 8bec 18bf 97c5 debe c220 2abf
000002d0: a91e b43d 74a9 92bd a840 463e 9499 d33d
000002e0: 1190 633e 83c8 793b 325f 6b3e bf44 a23e
000002f0: 9354 c1be a402 0fbf ece8 fbbd 67a5 943c
00000300: da91 e13d 750d 34bc 4155 513e 46c0 cfbd
00000310: 0e89 edbd 44a7 f53c 597b b7be c4ef 04bf
00000320: c94a 613d 72d6 e8bb e96e cb3d 76f1 34be
00000330: d9e9 613d e02b d13e e2eb 32be 78af 393e
00000340: cca4 b4bd 2215 303e d342 e03d c17a c53e
00000350: cc97 8d3d c821 afbd 4c42 73be ece3 03be
00000360: f8a1 a8bd ed78 83bd 6029 ddbe 9982 e3be
00000370: b106 bf3d a486 93bc 3160 c03d 68a8 2d3e
00000380: 8e83 043f 726a 8a3d 04d1 873d 9335 6c3e
00000390: fc58 42bd 4dd1 36bd 8ec1 1abf fca9 0ebf
000003a0: ffc2 0abd 3237 e2bd 9e87 87be c7f1 bebe
000003b0: 4c87 a8bd 1a6b 41be b9d9 553e d067 be3e
000003c0: a958 afbe ef8d 013f c650 013f 1453 5bbe
000003d0: f267 0ebe e8a6 72bc 1276 7abe 91fc dd3d
000003e0: 1980 babe a017 d23a 5e4b d8be 1755 cbbe
000003f0: 888f 513e d70e cabd 7413 643e 7bf8 13be
-0.10500306 0.055494294 0.10689074 -0.02408693 -0.023644002 -0.03443557 -0.40672803 -0.3499611
0.11650323 -0.09391746 -0.14044352 0.37193045 0.36454955 -0.11566064 -0.17966934 0.4887242
0.08594311 0.0024075783 -0.17462207 -0.08370718 -0.18008079 0.05201388 0.23823567 0.0010657819
0.09010181 -0.037898917 -0.22099553 0.050726596 0.15154131 0.00020216392 -0.4685584 -0.17248422
-0.24742958 -0.1031232 0.017535562 0.49745235 -0.04115059 0.034340862 0.481213 0.50399566
0.06991967 -0.031303056 0.72224534 -0.49717602 0.6009786 -0.37909248 0.16118304 0.30872008
0.22973469 -0.030808074 0.17925864 -0.46680617 0.010918465 -0.0022676291 -0.0010351012 -0.33217433
0.17061685 0.002959844 0.47425976 0.5727819 0.18463795 0.010532873 0.1236167 -0.19025221
-0.7853073 0.07682663 -0.3276724 0.10334683 -0.045117553 -0.026946431 0.8639571 0.72903854
0.4011921 0.37433228 0.7902949 -0.30806938 0.6302 0.12615843 -0.43623015 -0.08386941
0.2946447 -0.26265123 -0.21750432 -0.41411367 0.09949176 0.07191371 0.36292773 0.46967486
0.36593115 -0.042463243 0.7118526 0.7693828 -0.043827463 0.48903826 -0.032930095 0.13390392
-0.7967641 0.06833629 -0.68028766 -0.22467795 -0.0012533546 0.04964577 -0.28352576 -0.107408635
0.02994149 -0.032446984 0.18531978 -0.4154166 -0.03549172 0.12913015 -0.5370471 -0.969815
-0.40318272 -0.33661765 -0.5639991 -0.3201282 -0.12525827 0.048471585 0.072762825 -0.3591901
-0.12059741 -0.05765421 -0.496698 -0.02551339 -1.2096717 -0.11549992 0.22860949 -0.19440688
-0.13306595 0.026680728 -0.324499 0.008738936 0.065887295 0.011291034 -0.092551075 -0.026750565
-0.035358366 -0.1228641 0.30078995 -0.5954171 0.53572434 -0.011951751 -0.0021991034 -0.7115491
0.1158286 -0.41357616 -0.4036139 -0.14787686 -0.100467555 -0.059423767 -0.5462249 -0.45648697
-0.29563114 -0.043373946 -0.07956697 -0.3475954 -0.53245866 0.08211146 -0.04049258 -0.64158994
-0.82117856 0.10368837 0.0010610482 -0.17562109 0.046597023 -0.01211713 0.35639822 0.23985885
0.21374588 0.20153196 0.43646827 -0.39014503 0.6725918 -0.028028427 -0.44567573 -0.8900827
0.4126971 -0.59735936 -0.43510124 -0.66456234 0.087949105 -0.07161227 0.19360602 0.10332027
0.22222926 0.00381139 0.22985533 0.31693074 -0.37759838 -0.55863404 -0.12300286 0.018145276
0.11014147 -0.0109895365 0.20442678 -0.10144095 -0.11598407 0.029986985 -0.35836294 -0.51928353
0.05500296 -0.007105642 0.09933264 -0.17670235 0.055154655 0.40853786 -0.17472795 0.18133342
-0.08820495 0.17195562 0.10950246 0.38570216 0.069137186 -0.08551365 -0.23755759 -0.12879914
-0.08234018 -0.06419549 -0.4319563 -0.44435576 0.09327448 -0.018008538 0.09393347 0.16958773
0.51763237 0.06758584 0.066316634 0.23067312 -0.047448143 -0.0446332 -0.6045159 -0.55728126
-0.03387737 -0.11045684 -0.26470655 -0.37293836 -0.08228931 -0.18888512 0.20883836 0.37188578
-0.3424733 0.506072 0.50513875 -0.2141841 -0.1390684 -0.014810301 -0.24459103 0.10839189
-0.36425856 0.0016028769 -0.42245 -0.39713356 0.20464909 -0.09866112 0.22273046 -0.14450257
